ST Edge AI Core v2.2.0-20266 2adc00962
Created date          : 2026-02-23 15:21:32
Parameters            : generate --target stm32l4 --name network -m C:/Users/brand/Documents/ENGS-62-Workspace/W26-W7-PA/model.tflite --compression none --verbosity 1 --workspace C:/Users/brand/AppData/Local/Temp/mxAI_workspace2423403573988007354059016301689699 --output C:/Users/brand/.stm32cubemx/network_output

Exec/report summary (generate)
------------------------------------------------------------------------------------------------------------
model file         :   C:\Users\brand\Documents\ENGS-62-Workspace\W26-W7-PA\model.tflite                    
type               :   tflite                                                                               
c_name             :   network                                                                              
compression        :   none                                                                                 
options            :   allocate-inputs, allocate-outputs                                                    
optimization       :   balanced                                                                             
target/series      :   stm32l4                                                                              
workspace dir      :   C:\Users\brand\AppData\Local\Temp\mxAI_workspace2423403573988007354059016301689699   
output dir         :   C:\Users\brand\.stm32cubemx\network_output                                           
model_fmt          :   float                                                                                
model_name         :   model                                                                                
model_hash         :   0xa35123024a670193b0fc25f7f00d283e                                                   
params #           :   12,140 items (47.42 KiB)                                                             
------------------------------------------------------------------------------------------------------------
input 1/1          :   'serving_default_keras_tensor0', f32(1x26x3), 312 Bytes, activations                 
output 1/1         :   'nl_12', f32(1x4), 16 Bytes, activations                                             
macc               :   24,200                                                                               
weights (ro)       :   48,560 B (47.42 KiB) (1 segment)                                                     
activations (rw)   :   2,432 B (2.38 KiB) (1 segment) *                                                     
ram (total)        :   2,432 B (2.38 KiB) = 2,432 + 0 + 0                                                   
------------------------------------------------------------------------------------------------------------
(*) 'input'/'output' buffers are allocated in the activations buffer

Model name - model
------ ------------------------------------------ --------------------- --------------- -------- ------------------------------- --- --------------- ------------------ ----------------------------- 
m_id   layer (type,original)                      oshape                param/size          macc                    connected to   | c_size          c_macc             c_type                        
------ ------------------------------------------ --------------------- --------------- -------- ------------------------------- --- --------------- ------------------ ----------------------------- 
0      serving_default_keras_tensor0 (Input, )    [b:1,h:26,c:3]                                                                   |                                    
       reshape_0 (Reshape, EXPAND_DIMS)           [b:1,h:1,w:26,c:3]                               serving_default_keras_tensor0   |                                    
------ ------------------------------------------ --------------------- --------------- -------- ------------------------------- --- --------------- ------------------ ----------------------------- 
1      conv2d_1 (Conv2D, CONV_2D)                 [b:1,h:1,w:24,c:16]   160/640            3,472                       reshape_0   |                 +384(+11.1%)       Conv2D_/Nonlinearity_[0, 1]   
       nl_1_nl (Nonlinearity, CONV_2D)            [b:1,h:1,w:24,c:16]                        384                        conv2d_1   |                 -384(-100.0%)      
------ ------------------------------------------ --------------------- --------------- -------- ------------------------------- --- --------------- ------------------ ----------------------------- 
2      reshape_2 (Reshape, RESHAPE)               [b:1,h:24,c:16]                                                        nl_1_nl   |                                    
------ ------------------------------------------ --------------------- --------------- -------- ------------------------------- --- --------------- ------------------ ----------------------------- 
3      reshape_3 (Reshape, EXPAND_DIMS)           [b:1,h:1,w:24,c:16]                                                  reshape_2   |                                    
------ ------------------------------------------ --------------------- --------------- -------- ------------------------------- --- --------------- ------------------ ----------------------------- 
4      conv2d_4 (Conv2D, CONV_2D)                 [b:1,h:1,w:22,c:8]    392/1,568          8,456                       reshape_3   |                 +176(+2.1%)        Conv2D_/Nonlinearity_[2, 3]   
       nl_4_nl (Nonlinearity, CONV_2D)            [b:1,h:1,w:22,c:8]                         176                        conv2d_4   |                 -176(-100.0%)      
------ ------------------------------------------ --------------------- --------------- -------- ------------------------------- --- --------------- ------------------ ----------------------------- 
5      reshape_5 (Reshape, RESHAPE)               [b:1,h:22,c:8]                                                         nl_4_nl   |                                    
------ ------------------------------------------ --------------------- --------------- -------- ------------------------------- --- --------------- ------------------ ----------------------------- 
9      reshape_9 (Reshape, RESHAPE)               [b:1,c:176]                                                            nl_4_nl   |                                    
------ ------------------------------------------ --------------------- --------------- -------- ------------------------------- --- --------------- ------------------ ----------------------------- 
10     arith_constant9 (Placeholder, )            [b:64,c:176]          11,264/45,056                                              | +256(+0.6%)     +11,392(+100.0%)   Dense_/Nonlinearity_[4, 5]    
       arith_constant (Placeholder, )             [b:64]                64/256                                                     | -256(-100.0%)                      
       gemm_10 (Gemm, FULLY_CONNECTED)            [b:1,c:64]                              11,328                       reshape_9   |                 -11,328(-100.0%)   
                                                                                                                 arith_constant9   | 
                                                                                                                  arith_constant   | 
       nl_10_nl (Nonlinearity, FULLY_CONNECTED)   [b:1,c:64]                                  64                         gemm_10   |                 -64(-100.0%)       
------ ------------------------------------------ --------------------- --------------- -------- ------------------------------- --- --------------- ------------------ ----------------------------- 
11     arith_constant8 (Placeholder, )            [b:4,c:64]            256/1,024                                                  | +16(+1.6%)      +260(+100.0%)      Dense_[6]                     
       arith_constant3 (Placeholder, )            [b:4]                 4/16                                                       | -16(-100.0%)                       
       gemm_11 (Gemm, FULLY_CONNECTED)            [b:1,c:4]                                  260                        nl_10_nl   |                 -260(-100.0%)      
                                                                                                                 arith_constant8   | 
                                                                                                                 arith_constant3   | 
------ ------------------------------------------ --------------------- --------------- -------- ------------------------------- --- --------------- ------------------ ----------------------------- 
12     nl_12 (Nonlinearity, SOFTMAX)              [b:1,c:4]                                   60                         gemm_11   |                                    Nonlinearity_[o][7]           
------ ------------------------------------------ --------------------- --------------- -------- ------------------------------- --- --------------- ------------------ ----------------------------- 
model/c-model: macc=24,200/24,200  weights=48,560/48,560  activations=--/2,432 io=--/0



Generated C-graph summary
------------------------------------------------------------------------------------------------------------------------
model name            : model
c-name                : network
c-node #              : 8
c-array #             : 19
activations size      : 2432 (1 segment)
weights size          : 48560 (1 segment)
macc                  : 24200
inputs                : ['serving_default_keras_tensor0_output']
outputs               : ['nl_12_output']

C-Arrays (19)
------ -------------------------------------- ------------- ------------------------- ------------- --------- 
c_id   name (*_array)                         item/size     domain/mem-pool           c-type        comment   
------ -------------------------------------- ------------- ------------------------- ------------- --------- 
0      conv2d_1_bias                          16/64         weights/weights           const float             
1      conv2d_1_output                        384/1536      activations/**default**   float                   
2      conv2d_1_scratch0                      9/36          activations/**default**   float                   
3      conv2d_1_weights                       144/576       weights/weights           const float             
4      conv2d_4_bias                          8/32          weights/weights           const float             
5      conv2d_4_output                        176/704       activations/**default**   float                   
6      conv2d_4_scratch0                      48/192        activations/**default**   float                   
7      conv2d_4_weights                       384/1536      weights/weights           const float             
8      gemm_10_bias                           64/256        weights/weights           const float             
9      gemm_10_output                         64/256        activations/**default**   float                   
10     gemm_10_weights                        11264/45056   weights/weights           const float             
11     gemm_11_bias                           4/16          weights/weights           const float             
12     gemm_11_output                         4/16          activations/**default**   float                   
13     gemm_11_weights                        256/1024      weights/weights           const float             
14     nl_10_nl_output                        64/256        activations/**default**   float                   
15     nl_12_output                           4/16          activations/**default**   float         /output   
16     nl_1_nl_output                         384/1536      activations/**default**   float                   
17     nl_4_nl_output                         176/704       activations/**default**   float                   
18     serving_default_keras_tensor0_output   78/312        activations/**default**   float         /input    
------ -------------------------------------- ------------- ------------------------- ------------- --------- 

C-Layers (8)
------ ---------------- ---- --------------- ------- ------- ----------------------------------------- --------------------- 
c_id   name (*_layer)   id   layer_type      macc    rom     tensors                                   shape (array id)      
------ ---------------- ---- --------------- ------- ------- ----------------------------------------- --------------------- 
0      conv2d_1         1    Conv2D          3472    640     I: serving_default_keras_tensor0_output   f32(1x26x3) (18)      
                                                             S: conv2d_1_scratch0                                            
                                                             W: conv2d_1_weights                       f32(16x1x3x3) (3)     
                                                             W: conv2d_1_bias                          f32(16) (0)           
                                                             O: conv2d_1_output                        f32(1x1x24x16) (1)    
------ ---------------- ---- --------------- ------- ------- ----------------------------------------- --------------------- 
1      nl_1_nl          1    Nonlinearity    384     0       I: conv2d_1_output                        f32(1x1x24x16) (1)    
                                                             O: nl_1_nl_output                         f32(1x1x24x16) (16)   
------ ---------------- ---- --------------- ------- ------- ----------------------------------------- --------------------- 
2      conv2d_4         4    Conv2D          8456    1568    I: nl_1_nl_output                         f32(1x1x24x16) (16)   
                                                             S: conv2d_4_scratch0                                            
                                                             W: conv2d_4_weights                       f32(8x1x3x16) (7)     
                                                             W: conv2d_4_bias                          f32(8) (4)            
                                                             O: conv2d_4_output                        f32(1x1x22x8) (5)     
------ ---------------- ---- --------------- ------- ------- ----------------------------------------- --------------------- 
3      nl_4_nl          4    Nonlinearity    176     0       I: conv2d_4_output                        f32(1x1x22x8) (5)     
                                                             O: nl_4_nl_output                         f32(1x1x22x8) (17)    
------ ---------------- ---- --------------- ------- ------- ----------------------------------------- --------------------- 
4      gemm_10          10   Dense           11328   45312   I: nl_4_nl_output                         f32(1x1x22x8) (17)    
                                                             W: gemm_10_weights                        f32(64x176) (10)      
                                                             W: gemm_10_bias                           f32(64) (8)           
                                                             O: gemm_10_output                         f32(1x64) (9)         
------ ---------------- ---- --------------- ------- ------- ----------------------------------------- --------------------- 
5      nl_10_nl         10   Nonlinearity    64      0       I: gemm_10_output                         f32(1x64) (9)         
                                                             O: nl_10_nl_output                        f32(1x64) (14)        
------ ---------------- ---- --------------- ------- ------- ----------------------------------------- --------------------- 
6      gemm_11          11   Dense           260     1040    I: nl_10_nl_output                        f32(1x64) (14)        
                                                             W: gemm_11_weights                        f32(4x64) (13)        
                                                             W: gemm_11_bias                           f32(4) (11)           
                                                             O: gemm_11_output                         f32(1x4) (12)         
------ ---------------- ---- --------------- ------- ------- ----------------------------------------- --------------------- 
7      nl_12            12   Nonlinearity    60      0       I: gemm_11_output                         f32(1x4) (12)         
                                                             O: nl_12_output                           f32(1x4) (15)         
------ ---------------- ---- --------------- ------- ------- ----------------------------------------- --------------------- 



Number of operations per c-layer
------- ------ ------------------------- -------- -------------- 
c_id    m_id   name (type)                    #op           type 
------- ------ ------------------------- -------- -------------- 
0       1      conv2d_1 (Conv2D)            3,472   smul_f32_f32 
1       1      nl_1_nl (Nonlinearity)         384     op_f32_f32 
2       4      conv2d_4 (Conv2D)            8,456   smul_f32_f32 
3       4      nl_4_nl (Nonlinearity)         176     op_f32_f32 
4       10     gemm_10 (Dense)             11,328   smul_f32_f32 
5       10     nl_10_nl (Nonlinearity)         64     op_f32_f32 
6       11     gemm_11 (Dense)                260   smul_f32_f32 
7       12     nl_12 (Nonlinearity)            60     op_f32_f32 
------- ------ ------------------------- -------- -------------- 
total                                      24,200 

Number of operation types
---------------- -------- ----------- 
operation type          #           % 
---------------- -------- ----------- 
smul_f32_f32       23,516       97.2% 
op_f32_f32            684        2.8% 

Complexity report (model)
------ ----------------- ------------------------- ------------------------- -------- 
m_id   name              c_macc                    c_rom                     c_id     
------ ----------------- ------------------------- ------------------------- -------- 
1      conv2d_1          ||||||            15.9%   |                  1.3%   [0, 1]   
4      conv2d_4          ||||||||||||      35.7%   |                  3.2%   [2, 3]   
10     arith_constant9   ||||||||||||||||  47.1%   ||||||||||||||||  93.3%   [4, 5]   
11     arith_constant8   |                  1.1%   |                  2.1%   [6]      
12     nl_12             |                  0.2%   |                  0.0%   [7]      
------ ----------------- ------------------------- ------------------------- -------- 
macc=24,200 weights=48,560 act=2,432 ram_io=0
 
 Requested memory size by section - "stm32l4" target
 ------------------------------ -------- -------- ------- ------- 
 module                             text   rodata    data     bss 
 ------------------------------ -------- -------- ------- ------- 
 NetworkRuntime1020_CM4_GCC.a      8,996        0       0       0 
 network.o                           648       64   2,612     184 
 network_data.o                       48       16      88       0 
 lib (toolchain)*                    614       24       0       0 
 ------------------------------ -------- -------- ------- ------- 
 RT total**                       10,306      104   2,700     184 
 ------------------------------ -------- -------- ------- ------- 
 weights                               0   48,560       0       0 
 activations                           0        0       0   2,432 
 io                                    0        0       0       0 
 ------------------------------ -------- -------- ------- ------- 
 TOTAL                            10,306   48,664   2,700   2,616 
 ------------------------------ -------- -------- ------- ------- 
 *  toolchain objects (libm/libgcc*)
 ** RT AI runtime objects (kernels+infrastructure)
  
  Summary - "stm32l4" target
  ---------------------------------------------------
               FLASH (ro)      %*   RAM (rw)       % 
  ---------------------------------------------------
  RT total         13,110   21.3%      2,884   54.3% 
  ---------------------------------------------------
  TOTAL            61,670              5,316         
  ---------------------------------------------------
  *  rt/total


Generated files (7)
------------------------------------------------------------------ 
C:\Users\brand\.stm32cubemx\network_output\network_data_params.h   
C:\Users\brand\.stm32cubemx\network_output\network_data_params.c   
C:\Users\brand\.stm32cubemx\network_output\network_data.h          
C:\Users\brand\.stm32cubemx\network_output\network_data.c          
C:\Users\brand\.stm32cubemx\network_output\network_config.h        
C:\Users\brand\.stm32cubemx\network_output\network.h               
C:\Users\brand\.stm32cubemx\network_output\network.c               
